TaxiFareRegrModel.pt (torch_old, 109634 bytes, 20 tensors)

embeds.0.weight f4 [24, 12]
000000 44 c0 e3 3e 03 32 39 be 19 1f ef be c9 8c 18 3f
       0.44482625 -0.18085484 -0.46703413 0.5958982
000010 ae a3 2d 3f 27 a7 10 bf a7 f8 ab 3f 78 8b 3a 3e
       0.6782788 -0.56505054 1.3435258 0.18217266
000020 a4 41 8c bf ad 12 91 3f 00 a9 c6 3e 38 ee a6 be
       -1.0957532 1.1333824 0.38800812 -0.3260362
000030 b3 84 0c 3e fb 26 aa bf 9b 39 7c 3e df fb f4 3e
       0.13722496 -1.3293146 0.2463135 0.47848412
000040 71 48 ed be 54 ab a8 bf e8 56 88 3f f4 98 fa be
       -0.4634433 -1.3177285 1.0651522 -0.4894482
000050 bf 97 39 3e 0b 4a 95 3f b5 62 21 bf 28 8f de 3e
       0.18124293 1.1663221 -0.6304124 0.43468595
000060 4b e9 90 3e ff aa 91 bf a7 fc c3 be 85 ec 62 3e
       0.28302988 -1.1380309 -0.38278696 0.22160538
000070 12 89 11 be 46 8a 11 bf 8b 58 a8 bf 48 a6 83 bf
       -0.14212444 -0.56851614 -1.3152021 -1.028512
000080 b5 a2 69 bf 27 3a c9 3e 7d 41 55 bf 4d 0f 29 3f
       -0.91263896 0.3930218 -0.8330305 0.6603897
000090 2b f4 99 bf c7 63 59 be 76 1b 88 bf be a9 a9 3f
       -1.2027639 -0.21229468 -1.063338 1.3254926
0000a0 ce 15 8b be c8 9f 33 3e 47 6d e3 3e 2d 76 4c 3f
       -0.27165073 0.1754142 0.4441931 0.7986782
0000b0 01 83 e7 3e d9 26 21 3e a6 32 ea 3d 38 4f 68 be
       0.45217136 0.15737475 0.11435442 -0.2268647
0000c0 4d c6 7f bf 0c ad 5e bf 9e c4 b3 3f 16 f4 ad bf
       -0.9991196 -0.869828 1.4044378 -1.3590114
0000d0 60 c4 96 be a2 10 c0 bf 59 2e ff be 41 8b 95 3f
       -0.29446697 -1.5005076 -0.49840048 1.1683122
0000e0 58 a6 4e 3e 5e 22 24 bf 2b 44 4a 3f 3b 7f f5 3e
       0.20180643 -0.6411494 0.79010266 0.47948632
0000f0 25 e9 99 3e 2c e7 a0 be 5e 2e 35 3f f7 2d 27 c0
       0.30060688 -0.3142637 0.70773876 -2.6121805
000100 bc 01 52 be 16 b0 12 c0 ae af e1 bf 35 71 94 3c
       -0.20508474 -2.2919974 -1.7631738 0.018120388
000110 db 26 80 bf 50 11 2d 3f 33 88 57 3e 91 18 52 3f
       -1.0011858 0.6760454 0.2104805 0.82068735
000120 1f f3 36 3e 7f 1c 8e 3f b5 d3 15 3f f9 47 22 bf
       0.17866181 1.1102446 0.58526164 -0.6339107
000130 c6 b4 25 bf d4 09 10 bf 32 10 1c 3f be d9 20 be
       -0.64728963 -0.56264997 0.6096221 -0.15708062
000140 40 8d c4 3f c9 6c a0 bf 72 49 33 be 1b 9e 9b 3f
       1.5355606 -1.2533199 -0.17508486 1.2157625
000150 c5 3c de 3f 2e 33 14 be 6d 55 54 3d b7 6e 8f bf
       1.7362295 -0.14472649 0.05183928 -1.1205662
000160 90 93 31 bf 53 35 30 3c b3 f3 1c 3f 15 33 9e bf
       -0.6936579 0.010754901 0.61309355 -1.2359339
000170 75 f7 18 bf 34 7c 77 bf ce a2 0a bf 55 de 88 bf
       -0.5975259 -0.96673894 -0.5415467 -1.069285
000180 65 f9 30 bf 1e 21 65 bf 4c b7 28 40 70 66 b2 3f
       -0.69130546 -0.8950366 2.6361876 1.3937511
000190 47 af 67 bc f8 f1 22 bf 0d c4 02 bf 1e 97 c9 3d
       -0.0141409105 -0.63650465 -0.510804 0.098432764
0001a0 2e c1 08 3f d5 d4 a3 3f c7 ba 13 3f 9a a8 05 bf
       0.5341977 1.2799326 0.57706875 -0.5221039
0001b0 05 b8 88 3f 29 09 13 3d 21 f3 96 3f f0 0b 32 bd
       1.0681158 0.035897408 1.1792947 -0.043468416
0001c0 8f bd 9b bf 61 80 1b 3f 38 db 85 be 1d 02 7e bf
       -1.2167224 0.60742766 -0.26143813 -0.99221975
0001d0 f5 76 68 3f 4c c8 be 3f 88 d9 a3 bf 98 f4 36 3e
       0.90806514 1.4904876 -1.280076 0.17866743
0001e0 a8 4c 85 be 94 3d c6 3f e6 66 aa be 2f ac 9a be
       -0.26035047 1.5487542 -0.3328163 -0.3020949
0001f0 45 e6 16 3f 22 47 54 bf a6 06 85 bf 84 47 2e 3f
       0.58945113 -0.8292104 -1.0392654 0.68077874
000200 7f 7a e1 3e 4a ec 10 bf 5a 88 e5 bf 70 a9 1b bf
       0.4403877 -0.5661055 -1.7932236 -0.60805416
000210 12 d4 c1 3e 9c 26 64 3f bd 23 3c bf 46 c3 e7 3f
       0.3785711 0.89121413 -0.7349203 1.8106468
000220 a6 8a 3b 3f 78 19 6b 3f f7 3a 5b 3f c9 c5 72 bf
       0.73258436 0.9183574 0.8563685 -0.94833046
000230 69 f2 9f bf db ed f9 bf 9a 70 d4 bc fc 35 28 bf
       -1.2495853 -1.9525713 -0.025932599 -0.65707374
000240 42 c6 b4 bf ca d2 c1 bd 0c 71 70 3f 58 26 67 3f
       -1.4123003 -0.09464033 0.93922496 0.9029288
000250 e1 75 7a bb 21 c4 87 3f fe 4d 81 bf bc 4f 10 40
       -0.0038217234 1.0606729 -1.0101926 2.2548666
000260 71 d3 38 be 54 b8 be 3e 61 47 a6 3f ed ca b3 bf
       -0.18049408 0.37250006 1.2990533 -1.4046303
000270 90 bc e0 3f 0e 58 a2 3e 95 70 34 bf e0 11 87 bf
       1.7557545 0.31707805 -0.70484287 -1.055233
000280 9b d8 61 bf bc 62 97 bd a9 88 0f 3e 86 bc b8 3e
       -0.8822114 -0.07391879 0.14016975 0.36081332
000290 20 11 44 be 20 30 99 bd 31 45 d4 bf 81 f4 cf bf
       -0.19147158 -0.07479882 -1.6583616 -1.6246492
0002a0 97 a0 f9 3d 13 d5 b0 bf 5c dc 84 3f a1 b4 7b 3f
       0.12188833 -1.3815025 1.0379748 0.9832249
0002b0 a4 57 d9 bf 7a 44 80 3d 49 46 ad 3f f9 83 9b be
       -1.6979871 0.06263061 1.3537074 -0.30374125
0002c0 d7 06 87 bf d7 5f d7 3e 8d d5 8c 3f 28 70 4f bf
       -1.0548962 0.42065307 1.100267 -0.8103051
0002d0 b2 03 92 bd 1b 74 8d be 5c 7b 83 bd f1 67 06 3e
       -0.07129611 -0.27627644 -0.06420013 0.13125588
0002e0 e1 c4 64 3f 94 dd 82 3f cb fa 49 be 81 26 f7 bf
       0.89362913 1.022387 -0.19724576 -1.9308625
0002f0 63 01 8b 3e b3 f0 4e bf e2 a5 cd bf bb d9 56 bf
       0.27149495 -0.8083603 -1.6066248 -0.8392598
000300 b9 7d b3 bf b6 df af bf ee f4 fe be 63 58 b2 bf
       -1.4022743 -1.3740146 -0.49796242 -1.3933223
000310 77 df 76 bf f8 24 81 bc 76 5c 97 3f be 03 e1 3f
       -0.9643473 -0.015764698 1.1825092 1.7579267
000320 90 aa f7 bd 59 ed 87 3e bd f8 af be 29 83 b1 be
       -0.12093079 0.2654827 -0.3436946 -0.3467038
000330 8a 58 00 bf ea e7 06 c0 d7 f5 77 bf 2d 20 9c bf
       -0.501351 -2.107905 -0.96859497 -1.2197319
000340 cf 45 d0 3d 17 97 c3 3e 77 2d c6 bf f4 5b 8e be
       0.10169565 0.3820121 -1.5482625 -0.2780453
000350 6e 9a 40 bf 9a 3d d0 be 10 37 a2 be 1a 0f a4 3f
       -0.7523564 -0.40671998 -0.31682634 1.2817109
000360 db ce d7 bf e4 ec 31 bf aa 11 17 bf 68 d7 75 bf
       -1.6860002 -0.6950209 -0.5901133 -0.9603181
000370 06 b3 4a 3f be d3 c1 be d6 fc f6 3e 86 37 81 bc
       0.7917942 -0.3785686 0.48239774 -0.015773546
000380 29 33 7d bf c3 f4 fb 3d c4 27 87 bf a9 eb 6b bf
       -0.9890619 0.12302544 -1.055901 -0.92156464
000390 b2 ec c1 bf fa 1d 8a 3e cd 30 65 bf fc d7 8f be
       -1.5150359 0.26975995 -0.8952759 -0.2809447
0003a0 35 e0 ad 3e 03 ca fa 3d 56 4f fa 3f 33 60 a1 be
       0.3396012 0.12245562 1.9555461 -0.31518707
0003b0 bd 3e a6 3f 09 d4 cd be b0 25 06 bd ab 77 9b 3f
       1.2987896 -0.40200832 -0.032750785 1.2145895
0003c0 1c a1 ec bf ef 8c 26 bf 75 26 a7 bd 61 c8 14 bf
       -1.8486667 -0.650588 -0.08161632 -0.58118254
0003d0 08 9e 43 be 37 0b 64 bd f0 87 07 bf bc f8 23 c0
       -0.19103253 -0.055674758 -0.529418 -2.5620565
0003e0 df 6b f4 3e f3 dd 09 3f 74 98 4a bf 23 14 78 3f
       0.4773855 0.5385429 -0.79138875 0.96905726
0003f0 00 53 9b bf e9 ba a7 be 87 01 92 bf 94 a6 b7 be
       -1.2134705 -0.3275979 -1.1406716 -0.35869277

embeds.1.weight f4 [2, 1]
000000 11 b8 14 be 52 68 6f 3e
       -0.14523341 0.23379639

embeds.2.weight f4 [7, 4]
000000 b7 39 a1 3e 73 2c a5 3e 24 3c 55 3f eb 28 e3 bf
       0.31489345 0.32260475 0.8329489 -1.7746862
000010 e0 76 e8 3e f0 17 35 bf be 8e 8f 3f 4e 46 d6 3e
       0.45403194 -0.7073965 1.1215436 0.41850513
000020 f4 d5 c2 3f a3 5e ac bf 56 4f ba bf 6e 13 d6 3e
       1.5221543 -1.3466381 -1.4555461 0.418117
000030 7c 4d 20 3f 1e aa b6 be a2 e2 fe bf ba 91 d0 bf
       0.6261823 -0.35676664 -1.9912913 -1.6294472
000040 94 f3 15 bf 89 b9 b1 be c1 27 c8 3f ea 18 0d 3f
       -0.58574796 -0.34711865 1.5637132 0.5511614
000050 63 4e c7 3f fe 42 04 bf 2a e6 9c bf 9b f1 ba be
       1.5570797 -0.5166472 -1.225774 -0.36512455
000060 4b cd 32 3f 14 3d 41 bf 83 bc 0d bf 90 de 12 3e
       0.698445 -0.7548382 -0.5536577 0.14342713

bn_cont.weight f4 [6]
000000 7c 3e f3 3e 7e 08 27 3f 12 4d 23 3f a9 ef e0 3e
       0.4750861 0.65247333 0.63789475 0.43932846
000010 b7 48 c7 3e 9a 97 3f 3f
       0.38922665 0.748407

bn_cont.bias f4 [6]
000000 87 14 92 3d be fd ac bb 8a 0c 2d 3d d2 13 c6 bd
       0.071328215 -0.005279272 0.042248286 -0.09671749
000010 8a 6c db bd 2e 2e 1a bc
       -0.107140616 -0.009410424

bn_cont.running_mean f4 [6]
000000 76 01 23 42 ea f3 93 c2 ef 01 23 42 ed f2 93 c2
       40.751427 -73.976395 40.75189 -73.974464
000010 7d 95 ac 3f ca 00 54 40
       1.348312 3.3125482

bn_cont.running_var f4 [6]
000000 1c f0 2d 3a 90 db 84 3a 54 4f 70 3a ef 51 8a 3a
       0.00066352054 0.0010136236 0.0009167094 0.0010552983
000010 19 a5 13 3f ae 3e 31 41
       0.57673794 11.077803

layers.0.weight f4 [200, 23]
000000 c7 02 b9 3c 0c 5d 05 bd 77 69 69 3d 6d 04 4e bd
       0.022584332 -0.03255944 0.056985345 -0.05029719
000010 01 13 8a bd 2e 8a a4 3d 68 c3 2a 3d 5a bf be bc
       -0.06741906 0.08034168 0.04169026 -0.023284603
000020 1a fb f5 bc 54 c1 79 3c 8f 42 40 bd a6 a3 68 3d
       -0.030026961 0.015243847 -0.046938475 0.056796692
000030 c2 bc 87 bc 22 41 a9 bc e5 21 ad bd 93 bc f5 3c
       -0.016569499 -0.02066094 -0.084537305 0.029997146
000040 80 96 0d bd 25 56 25 be 29 2c 21 3e 09 32 0d be
       -0.034567356 -0.16146143 0.15739502 -0.13788618
000050 c2 8d 76 3e 9f 0f 7c 3d c5 f5 57 3e 14 64 16 3c
       0.24077514 0.061538335 0.21089847 0.009179134
000060 53 8a 73 bb b5 db 00 3c 07 9c 3e 3b 65 ac 6a bc
       -0.0037161305 0.007864882 0.0029084699 -0.014323329
000070 fa 85 26 3b 59 10 88 bc 4a f1 1e 3a d9 6c 0b 3c
       0.0025409446 -0.016609358 0.00060631766 0.008509838
000080 98 88 06 3c e6 cd 90 38 88 c9 32 bc bf 81 d3 3c
       0.008211277 6.904807e-05 -0.010912307 0.025818704
000090 64 0a fc 3b 59 fc 2f 3c e0 e2 8b b9 8c a3 ee 3a
       0.0076916683 0.010741317 -0.0002668118 0.00182067
0000a0 48 3b e0 bd a9 67 97 3d df f8 ad bc 6b 64 85 bb
       -0.10948807 0.073928185 -0.021236835 -0.0040708086
0000b0 72 72 0c 3c 7b 3a 68 3e 62 52 b5 3b 72 9f a5 bb
       0.008572208 0.22678559 0.0055335024 -0.0050544078
0000c0 e0 11 8d bb d0 ac 3f 3c 6e 2b 6f ba d9 6e 18 bc
       -0.0043051094 0.011698917 -0.0009123598 -0.009303772
0000d0 b3 ee ee 3b cc 93 dc 3a 8f 8d 7f bc 3c c3 1f bb
       0.0072916388 0.0016828715 -0.015597715 -0.0024377843
0000e0 03 a2 a4 3c f5 0c af 3b e2 13 c0 bc 5c ba 94 bb
       0.020096784 0.005342121 -0.02344698 -0.0045388173
0000f0 5b 70 48 3b 6a 8b 1d 3b b6 21 da 3b ee 12 7a be
       0.0030584547 0.0024039396 0.0066568507 -0.24421284
000100 9a 7c 02 3e 7b 4f 0e be 1c d9 9e 3e 64 52 7e bd
       0.12742844 -0.13897507 0.31025016 -0.062090293
000110 be 74 8d be b2 ab cf bd 70 2b 8c 3c 42 e0 27 bd
       -0.2762813 -0.1014017 0.017110556 -0.040985353
000120 65 19 b9 bd 0d 14 60 bd a4 9c fd 3d 7d b0 0b bd
       -0.09038047 -0.054706622 0.123833925 -0.03410386
000130 ed f9 95 bd 58 16 94 3d 9b 0a 87 bd 55 32 92 3d
       -0.0732306 0.07230824 -0.0659382 0.07138506
000140 dd a2 12 bc 24 a9 9c 3a 4c 1f 3f bc a5 d1 c0 bd
       -0.008949962 0.0011952263 -0.011665177 -0.094149865
000150 89 06 2f 3c 1e 49 cc bd 29 2c a6 3d 01 6a c8 3c
       0.01068271 -0.099748835 0.08113892 0.02446461
000160 0e 80 20 bc 24 18 40 3a 56 d4 91 be 22 80 8f be
       -0.009796156 0.0007327816 -0.28482312 -0.28027445
000170 cd b7 4b bd c3 0f 6a 3d 7e cf 3e 3d f8 d0 14 3d
       -0.049735833 0.057143938 0.0465846 0.0363321
000180 6e 93 09 bd a0 aa 4a 3d 81 43 ad bb ff 31 84 3c
       -0.033587866 0.049479127 -0.005287588 0.016137121
000190 db 57 c3 bd d2 c0 2d 3c be ca 92 bd d5 41 a8 3d
       -0.095382415 0.010605054 -0.07167576 0.082156815
0001a0 c5 9b 44 3c 59 33 62 3b 87 e2 0a 3a 62 da 03 3c
       0.012000029 0.003451547 0.00052980374 0.008047672
0001b0 30 44 c2 3c ab 5e 2e 3c 59 a6 49 be 05 41 8a 3e
       0.023714155 0.010642688 -0.19692363 0.2700273
0001c0 24 6c 54 be 68 8d 15 3d 34 c7 2d be ba 0a 18 3d
       -0.20744377 0.03651181 -0.16970521 0.037119605
0001d0 ab 02 61 bd 87 b1 19 3d 31 3b fb bd 57 9b 34 bd
       -0.054934185 0.03752282 -0.12267149 -0.044093456
0001e0 64 f9 3c bd 05 a3 c7 bd 7b 75 82 3d 6f a8 50 bb
       -0.046136275 -0.097478904 0.06370064 -0.0031838675
0001f0 e8 29 e9 bd 7c 1d 33 3e 72 ec 0b be c2 3f 1e be
       -0.11384946 0.17491716 -0.13664415 -0.15454009
000200 15 c7 2b bd c5 dd e5 3d 5c 26 de bd 14 0a 1f 3d
       -0.041937906 0.1122394 -0.1084716 0.03882797
000210 1e 70 be bd 8a 42 2f 3e 99 93 0c bc 0f aa 78 bd
       -0.092987284 0.17115226 -0.008580112 -0.060709056
000220 58 d1 d0 3c e6 37 11 3e ab 9d 4d bd 7f 8c 07 3e
       0.025490448 0.1418148 -0.050199192 0.13237189
000230 49 15 a6 3c a2 85 0b 3c d6 e1 fa ba df b8 b1 bd
       0.020273821 0.008515747 -0.0019140791 -0.086778395
000240 e0 13 01 be 9b 76 53 bd 82 dd 13 be 27 f4 a1 bd
       -0.12605238 -0.051626783 -0.14439967 -0.079078965
000250 af 8c 7d 3d fc d5 84 bb 86 f3 98 bd a0 d5 6c be
       0.061901744 -0.0040538292 -0.074683234 -0.23128366
000260 89 eb 24 3e c0 e7 73 be 22 56 bc bd 24 93 86 3e
       0.16105475 -0.23818874 -0.09196116 0.26284134
000270 e3 cc 87 bd cc 1c 21 3e 16 66 04 be 43 7d cb 3c
       -0.06630876 0.15733641 -0.12929568 0.024840003
000280 ea 8e d4 bd ce a1 ca 3c 17 74 b9 bd 2e 5c 0d 3e
       -0.10378821 0.024735358 -0.090553455 0.13804695
000290 b9 5d be bd dc 94 16 3e ca 42 c7 3d e3 c7 02 be
       -0.0929522 0.14705223 0.09729536 -0.12771563
0002a0 29 8e cf 3c 74 7b 00 3e 16 f0 8f bd b1 b2 3f be
       0.025336342 0.12547094 -0.07028215 -0.18720509
0002b0 88 87 0a 3e 62 04 2c be c1 7d 83 bb f5 08 f4 bd
       0.13528264 -0.16798547 -0.004012794 -0.11915771
0002c0 c7 02 bc bd fd d2 af bd 12 ce 61 3b ee 95 f4 3d
       -0.09180217 -0.08585165 0.0034455103 0.11942659
0002d0 9a da 78 bd dd 9a 24 be 44 1a a5 3d b8 d0 43 be
       -0.06075535 -0.160747 0.080616504 -0.19122589
0002e0 6c 6e 0b bc ca 94 a2 3c 59 45 9b 3c 05 6f a6 bc
       -0.008510213 0.019846339 0.018953966 -0.02031661
0002f0 58 fa 5d bc a9 d6 9f 3c 0e 27 5d 3c 54 84 43 bb
       -0.013548456 0.019511538 0.013498081 -0.0029833512
000300 61 dd e2 bc fa a1 92 3c a5 9e 4a bc 45 27 57 bc
       -0.027693452 0.017899502 -0.012366925 -0.013131921
000310 1a 93 84 3d ea ca 3d 3c a8 54 68 bd d5 33 1c 3c
       0.0647337 0.011584023 -0.05672136 0.009533842
000320 28 68 c7 bc 01 3d 99 3d aa 74 d0 bc e2 a7 ac 3b
       -0.024341658 0.07482339 -0.025446255 0.0052690366
000330 2f 4b 8d bd 5b e0 d0 bc 2d f9 9e 3e 5d 96 b9 3c
       -0.06899106 -0.025497606 0.3104948 0.022654707
000340 ae ee db 3b 17 02 c5 bd d3 c5 df bc 7f 40 a1 bc
       0.0067118024 -0.09619539 -0.02731601 -0.019684074
000350 14 2e 3c b9 b8 da 09 3d 39 0b b4 bc dc e3 46 bd
       -0.00017946243 0.033655852 -0.021978008 -0.048557147
000360 83 f3 b0 3d e3 f6 f7 3a ca 90 0c 3d 52 00 4c be
       0.08640196 0.0018918182 0.03431777 -0.19921997
000370 63 e4 2e 3d 0b d4 12 3d 4b 87 b5 3c ef 08 d2 3c
       0.042698275 0.03584675 0.02215924 0.025639025
000380 6f a4 8a 3e 18 99 18 be 61 cc 74 3e 8e 81 65 be
       0.27078578 -0.1490215 0.2390609 -0.22412702
000390 f9 98 15 3e 56 25 5b be 8f 1f dc b9 a1 9a 66 3c
       0.14609136 -0.21400961 -0.00041985183 0.014074952
0003a0 b3 f2 08 3d 49 6d d3 bc 40 0a b5 3c d3 2a 01 3c
       0.03343458 -0.025808947 0.022099614 0.007883745
0003b0 27 bd 18 bb 1b b0 18 3c 03 6e 01 3c 16 f3 f1 bb
       -0.0023306103 0.009319331 0.007899764 -0.0073837144
0003c0 4f 76 c1 3c 2d 96 8d bc 30 73 3c 3e 84 23 fb 3b
       0.023615984 -0.017283523 0.18403316 0.007664146
0003d0 50 3d 89 b8 2e 91 e1 ba 1f eb 45 3c 36 82 8f bd
       -6.5440894e-05 -0.0017209405 0.012079983 -0.07007258
0003e0 f4 34 a4 3c 37 89 05 3e 4d ef a2 3b a1 54 bd 3d
       0.020044781 0.13040625 0.0049723745 0.09244657
0003f0 ad e1 a5 be 11 5a 0c bd 5b bf 10 3b c1 03 a0 bc
       -0.3239874 -0.03426558 0.0022086713 -0.01953304

layers.0.bias f4 [200]
000000 4b 63 0b bb 96 f9 29 3e 4a af 63 3d f9 b5 26 3e
       -0.00212689 0.16599116 0.05558709 0.16280355
000010 34 d5 83 3e 07 02 62 3d ca 4c fc 3d 32 d8 25 bd
       0.257486 0.055177715 0.12319334 -0.040489383
000020 52 1a a6 3d 3c e6 63 3e 84 47 20 3d a7 77 90 3e
       0.08110489 0.22255796 0.039130703 0.28216287
000030 8b 94 46 bd fd 49 0c 3e e5 b7 f7 3d c9 45 34 3d
       -0.048481505 0.137001 0.12095622 0.044011865
000040 24 60 22 3e 5b 0b 1a bc 4f 1e 1f bd 6e 0a 6c 3e
       0.15856987 -0.009402121 -0.038847264 0.23050854
000050 8d 38 08 3e e2 cd 51 be 14 e9 34 bd 93 34 6a 3e
       0.13302822 -0.20488694 -0.044167593 0.22871618
000060 bc 83 9f bc 05 53 23 3e 3b 60 f7 3d 62 63 13 3e
       -0.019471996 0.15949638 0.120789014 0.1439338
000070 24 1e b5 3d bf a4 b2 3e 27 26 44 3d 3b 32 ae bc
       0.088436395 0.34891316 0.047887947 -0.021264186
000080 a0 a9 f4 3c 18 e3 b1 3d ec 92 c6 3c fb 82 25 3e
       0.02986604 0.08685893 0.02423998 0.16163246
000090 97 22 9f bd 55 96 0b 3e 91 ba 8a 3e 04 d6 85 3e
       -0.07770269 0.13631566 0.27095464 0.26139843
0000a0 a8 f0 1f bc 11 1e c3 bc 8a 6f 89 3e b9 aa 8d 3e
       -0.009761967 -0.023818048 0.2684291 0.27669314
0000b0 42 15 a4 bb 3a 54 2a be a5 fd a7 3d 24 b2 4b 3d
       -0.005007417 -0.16633692 0.08202676 0.049730435
0000c0 78 ef 43 bd 56 6b f0 bd ac ec 59 be 24 6f ea 3d
       -0.047835797 -0.11739223 -0.2128169 0.1144698
0000d0 e7 0c 3d 3d 86 ec 58 3d 43 26 c5 3d 6e 01 e4 bd
       0.046154883 0.05295994 0.096264385 -0.11133085
0000e0 49 ae 50 be 80 a3 75 3e 88 ee b1 3d 00 06 55 be
       -0.20378985 0.23988152 0.08688074 -0.2080307
0000f0 12 0a ea 3d 93 42 07 be 09 f9 ba 3e 53 0a 3c 3c
       0.11427702 -0.1320899 0.36518124 0.011477071
000100 3e 37 83 3e 29 ef e7 3b 18 fa 3c 3e 72 ef 37 be
       0.25628084 0.0070780707 0.18454778 -0.17962435
000110 ff e1 2e be 80 c1 88 3e 7e 7c 23 3e 83 f2 dd 3d
       -0.17078398 0.2671013 0.15965459 0.10837271
000120 e7 a2 31 3e 21 cf 83 3e 8e 08 72 3e f4 f3 23 3e
       0.17347299 0.25743964 0.23636076 0.1601103
000130 4c 1f 0b 3a 0f 00 a7 bc e4 64 7b 3e 50 2f e6 bd
       0.0005307093 -0.02038577 0.24550205 -0.11239493
000140 90 34 7c bd 0a 6e 26 3e bc 2f 0e be 41 6a 9f 3e
       -0.061573565 0.16252914 -0.13885397 0.31135753
000150 0f c6 9a 3d 5b 11 e7 3d 75 b1 ab 3e 14 8b ca bd
       0.07557308 0.11282607 0.33533826 -0.09889808
000160 9c a3 0c 3e 3b 09 c3 bd 93 93 5e 3e a0 42 e0 3c
       0.13734287 -0.09523245 0.21735983 0.02737552
000170 79 68 94 3d 9e e4 2e be c7 e1 d3 3d 53 33 ea 3d
       0.07246489 -0.17079398 0.10345798 0.114355706
000180 8a 84 83 3e 39 8f c1 3d 99 d6 2c bd cd b3 cb bd
       0.25687057 0.09451146 -0.042196844 -0.09946404
000190 01 93 51 3e c6 71 b8 3d 23 60 ee bd 01 c3 60 3d
       0.20466234 0.090060756 -0.116394304 0.05487347
0001a0 23 2e e9 bd 3e 5b 42 3e 9e bb 34 3e c2 31 23 3d
       -0.11385753 0.18980119 0.17649695 0.039842375
0001b0 2e f7 59 3e 4a c5 ee 3c f7 ee 4a 3e e4 d7 46 3d
       0.21285698 0.02914681 0.1981772 0.048545733
0001c0 c9 60 0e 3d b3 b4 fb bc 9d de 04 3e 8a 51 b2 3d
       0.03476027 -0.030725813 0.12975545 0.087069586
0001d0 c6 a6 6f bd 18 4c 1b 3e cd 8c 15 3d 78 89 a9 be
       -0.058508657 0.15165746 0.03651123 -0.33112693
0001e0 84 b2 de 3d 06 c3 19 3e 04 e8 28 3e a9 18 a3 3d
       0.10873893 0.15015802 0.16494757 0.07963688
0001f0 f5 a2 4d 3e 21 45 98 3e 84 6a 25 3d a6 0d ac 3c
       0.20081694 0.2974024 0.040384784 0.021002602
000200 bc 44 a5 be a7 54 71 3e 27 b7 59 3e 51 d8 02 3c
       -0.32279003 0.23567449 0.21261273 0.007986144
000210 aa 72 77 3e 32 ad 3c 3d 66 fb 84 3e f2 2c 84 bc
       0.24164835 0.04606361 0.25973052 -0.016134713
000220 f5 31 b4 3d bb a9 9b 3e 48 ed 16 3d 88 67 83 3d
       0.08798591 0.30402932 0.036847383 0.064162314
000230 9f 3f 92 3e fb 99 1c 3e 19 98 3a 3d c0 ad 5c 3e
       0.28564164 0.15293114 0.045555208 0.21550655
000240 19 00 25 3e a1 3b a1 bd 62 5d f6 3c e4 14 da bc
       0.16113319 -0.078727014 0.030073825 -0.02662129
000250 14 08 dc 3c 12 23 4b 3e 29 52 0d 3e 8a b9 87 3d
       0.02685932 0.19837597 0.13800873 0.06627186
000260 aa a9 ca bb c9 a9 03 3e 8c 5a 85 3e 70 03 03 3d
       -0.0061847763 0.12857737 0.26045644 0.0319857
000270 dc 8e 7b bd 1a 87 2e 3e f3 e2 09 bd 53 90 9e bd
       -0.06141554 0.17043725 -0.0336637 -0.077423714
000280 64 ec 09 3e 04 60 83 3c 51 d8 cb 3d 0a 7d b3 bd
       0.13469082 0.016036995 0.099533685 -0.08764084
000290 1c a6 da bd e4 1d 81 3d 51 fc 61 3e 42 bc 23 be
       -0.10676214 0.06304529 0.22068907 -0.15989783
0002a0 15 ce d3 3d fd 05 06 be e7 46 dc bd 25 1b fc 3d
       0.103420414 -0.13088222 -0.10755711 0.12309865
0002b0 78 00 3b bd 03 59 13 be 74 c6 c8 3d 12 97 9a bc
       -0.045654744 -0.14389424 0.09803477 -0.018870864
0002c0 18 f6 8f 3e a3 33 84 ba 6e 3d 5d 3e a3 51 01 bc
       0.28117442 -0.001008619 0.21605465 -0.007892999
0002d0 d4 56 19 3d 37 db 5b 3d fa 5e 25 3e 9d ab 9c 3d
       0.03743632 0.053675856 0.16149512 0.0764992
0002e0 09 38 27 be 20 66 b0 3d b4 d9 0d bd 1b f6 f7 bd
       -0.1632997 0.08613229 -0.034631446 -0.12107488
0002f0 c5 4e b5 3e 1e ec 87 bc 5b 75 97 bd b1 54 a4 bc
       0.3541166 -0.016592082 -0.07395431 -0.020059915
000300 8c 8a 5a 3e 09 85 0b 3e 05 d5 f0 3c a9 23 9f 3e
       0.21341914 0.13624968 0.02939845 0.31081894
000310 80 84 0b bc f4 0a 80 3e b4 95 21 3e 15 0c ec 3d
       -0.008515477 0.25008357 0.15779763 0.11525742

layers.2.weight f4 [200]
000000 ce 98 4a 3e 9e e9 26 3f 7f ca 50 3f cc c5 3b 3e
       0.19784853 0.6520022 0.81558985 0.18337172
000010 d3 10 da 3e 99 69 03 3f 17 4c f8 3c 09 2a 2e 3f
       0.4259096 0.51333004 0.03030972 0.6803289
000020 e0 76 75 3e ed a0 d5 3e b4 4a f3 3d 0a 8f 93 3e
       0.23971128 0.4172434 0.11879483 0.28820068
000030 6a 92 ce 3d 54 14 03 3f b4 c0 52 3f 77 ca 53 3f
       0.1008652 0.51202893 0.8232529 0.8273081
000040 89 22 02 3f 3b c0 94 3e 82 69 21 3f 67 74 5c 3e
       0.50833946 0.2905291 0.6305162 0.21528779
000050 9f e7 27 3f ec 07 25 3f eb eb 6c 3f 4a 6c 5d 3f
       0.655878 0.6446521 0.9254748 0.8649336
000060 1a ff 30 3e 1e 1f 5e 3e 50 74 39 3f e6 f4 cc 3e
       0.17284814 0.21691558 0.72443104 0.40030593
000070 1b ab 1b 3f 50 eb e1 3e f3 97 f2 3d 0b 94 3f 3f
       0.6080796 0.44124842 0.11845388 0.7483527
000080 4b 87 0d 3e 2b 2a 3c 3f 00 d6 45 3f 48 7d 57 3f
       0.13821141 0.73501843 0.77279663 0.8417554
000090 be 1c df 3e 65 42 19 3e 41 c5 8f 3e 6d 1f 35 3f
       0.43576616 0.14966734 0.2808018 0.70751077
0000a0 55 23 76 3e 49 1c 05 3f c1 06 55 3f 51 12 4f 3e
       0.24036916 0.51996285 0.8321343 0.20221831
0000b0 f7 f2 e1 3e 13 28 1c 3f a7 68 fa 3e 80 e2 6e 3f
       0.4413068 0.6099865 0.48907968 0.9331436
0000c0 62 e8 3a 3f df f4 ef 3e f2 16 10 3e 9f c3 70 3f
       0.7301084 0.4686651 0.14071253 0.94048494
0000d0 ce 52 2d 3f 4e 56 d5 3e 59 6b fb 3d 0d b6 69 3f
       0.67704475 0.41667408 0.12276334 0.9129341
0000e0 5b c9 30 3f d3 54 63 3f 7e 12 70 3f 74 d2 38 3f
       0.69057244 0.88801306 0.93778217 0.72196126
0000f0 28 45 32 3f 47 23 2e 3f 62 0c 7e 3e a4 6d bd 3e
       0.69636774 0.6802258 0.24809411 0.36997712
000100 72 af d4 3e e6 30 bf 3d c4 74 88 3e a0 65 28 3f
       0.41540104 0.093354985 0.26651585 0.6578007
000110 32 fb 2a 3f 50 fe 80 3e fa 3d fe 3e be 6d 27 3f
       0.66789544 0.25194025 0.4965666 0.6540183
000120 9b ba 13 3f 44 6d 26 3f b0 ab 52 3e 56 40 03 3f
       0.5770661 0.65010476 0.20573306 0.51270044
000130 5a 75 16 3d 8d 40 d1 3e 67 a9 0d 3f cc 33 b0 3e
       0.03673301 0.4086956 0.5533661 0.34414518
000140 9d 2a 5b 3f c6 97 48 3e bf c0 49 3f 5c 62 4c 3e
       0.856119 0.19589147 0.7880973 0.19959396
000150 fe 3d a0 3e da dc 8b 3e e0 5b 8e 3d fd b3 b5 3e
       0.31297296 0.27316934 0.069511175 0.35488883
000160 e9 57 be 3e 58 70 13 3f 17 23 24 3f 63 8c 00 3f
       0.37176445 0.575933 0.6411604 0.50214213
000170 a9 d9 a4 bd df 2e 0e 3e 67 87 65 3f 7c db b8 3e
       -0.08049328 0.13885067 0.8965973 0.36104953
000180 dc fe a6 3e 0c 9e 7e 3e b3 a1 2c 3f 81 05 eb 3d
       0.32616317 0.24864978 0.67434233 0.11475659
000190 64 a5 35 3f 69 5c cf 3e 5d b7 10 3f f6 c3 a5 3e
       0.7095549 0.4050019 0.5652979 0.3237607
0001a0 d6 91 97 3d b8 d1 41 3f df d9 7a 3e 54 7f 42 3f
       0.07400863 0.7571063 0.24497174 0.7597554
0001b0 e7 82 02 3f 5d 91 66 3f 5b 96 72 3f 34 64 31 3e
       0.5098099 0.90065557 0.94760674 0.1732338
0001c0 30 4e b0 3e 1e 36 78 3e 70 81 2f 3e 28 cd 1c 3f
       0.34434652 0.24239394 0.1713922 0.61250544
0001d0 9a 97 03 3f 39 cf 31 3f 55 94 21 3f 57 32 15 3f
       0.514032 0.6945682 0.6311696 0.5827994
0001e0 70 b7 45 3f 93 41 e4 3e 83 e2 72 3e 2c 2b 0b 3f
       0.7723303 0.4458128 0.2371922 0.5436275
0001f0 57 30 30 3f e5 df 04 3f 1a 14 9c 3e 8c f4 2a 3f
       0.6882376 0.51904136 0.30484086 0.667794
000200 3d 7e 22 3e 58 93 6d 3e 9e ff dc 3d b1 12 7f 3e
       0.15868469 0.23200738 0.107909426 0.24909474
000210 14 f9 46 3e da 1a 3c 3f 24 03 44 3f 5a a5 0f 3f
       0.19430953 0.7347847 0.7656729 0.5611168
000220 34 6a 4f 3e d4 1b cb 3e 96 7b 73 3f 1b c3 fb 3d
       0.20255357 0.3966967 0.9511045 0.12293073
000230 ef e5 73 3f 75 5c 93 3e c7 cc f2 3e 4e d0 1e 3e
       0.95272726 0.28781477 0.47421858 0.1550915
000240 74 47 13 3f 12 a4 57 3f 00 95 12 3f eb 90 0b 3e
       0.57530904 0.84234726 0.57258606 0.136295
000250 ef 4e 75 3f bd 8f b9 3e 32 24 00 3f e2 c9 13 3f
       0.9582357 0.36242476 0.5005523 0.57729924
000260 fd 67 63 3f d9 aa 4f 3f 04 85 04 3f a3 66 ec 3d
       0.8883055 0.8112007 0.51765466 0.11543014
000270 75 08 6e 3f aa 40 ef 3e cc c8 7a 3e 3d db 10 3f
       0.92981654 0.46729022 0.2449066 0.5658453
000280 14 95 09 3f ae c9 db 3e 47 31 dd 3e f5 6f 61 3f
       0.537431 0.42927307 0.43201658 0.8806146
000290 e0 bd c3 3e 4e d2 03 3f c2 b1 a9 3e aa 44 e5 3e
       0.382308 0.51492774 0.3314343 0.4477895
0002a0 b6 50 20 3f 3b 54 bc 3d f4 cc 42 3f b2 bf 2a 3f
       0.62623155 0.09195753 0.76093984 0.66698754
0002b0 bb 85 ff 3e 29 6c 56 3f d7 61 c2 3d d5 04 45 3e
       0.49906716 0.8375879 0.09491318 0.19240125
0002c0 0e 83 cd 3d 36 c2 45 3e 67 c3 c0 3d 9d 91 32 3f
       0.10034762 0.19312367 0.0941227 0.6975344
0002d0 2a fd 39 3f 7a 41 a9 3e 84 7b fb 3d f9 32 5f 3f
       0.7265192 0.33057767 0.12279418 0.87187153
0002e0 bf b5 df 3e a2 40 f6 3e df da b6 3e 56 de 4e 3f
       0.4369335 0.48096186 0.3571386 0.8080801
0002f0 bb 44 38 3f db c7 8a 3e 4c d2 33 3f 3d 73 a1 3e
       0.71979874 0.27105603 0.7024276 0.31533232
000300 d6 94 94 3e a2 55 7b 3f 38 5c 10 3f 14 a6 09 3f
       0.29019803 0.9817754 0.56390715 0.5376904
000310 39 08 0e 3f e5 b2 5a 3f 87 33 c0 3e 30 89 1b 3f
       0.55481297 0.8542922 0.37539312 0.60756207

layers.2.bias f4 [200]
000000 6b 0e b1 bd fc ea a9 bd 85 43 25 3e 39 ee da 3d
       -0.08645328 -0.08296773 0.16139038 0.106899686
000010 97 23 0c 3e 85 dd f0 bd 5d 20 91 3d dd f9 e8 3d
       0.13685451 -0.117610015 0.07086251 0.11375783
000020 48 00 c3 bd 59 6d 0d 3e 35 6e 8b 3d ee 53 04 3e
       -0.09521538 0.13811244 0.0680813 0.12922642
000030 99 b0 7a bd 45 de ff 3d 38 5f a4 3d 5a f5 ed 3d
       -0.061203573 0.124935664 0.08025974 0.11619063
000040 bf 54 f7 bd 82 aa c1 3d 40 d5 02 3e ba ba 0e 3e
       -0.12076711 0.0945635 0.12776661 0.13938418
000050 58 49 c8 bd de 12 c8 bd 09 bb 3b bd 83 bd e9 bd
       -0.09779614 -0.09769224 -0.045832667 -0.114130996
000060 2b 83 53 3d 8e 18 09 be 50 c7 3e bc d0 95 0c 3e
       0.051638763 -0.13388273 -0.0116441995 0.13729024
000070 5a 18 e4 bd 6a 06 13 3e 8c a6 9d 3d ef ca eb bd
       -0.11137457 0.14357916 0.07697782 -0.11513316
000080 20 12 35 bd 48 1c d0 bd e6 e8 ed 3d dd 3a 08 be
       -0.04420674 -0.10161644 0.116166875 -0.13303705
000090 51 20 f6 3d 76 94 d6 bd 01 4f dd 3d a2 35 ea 3d
       0.120178826 -0.104775354 0.108060844 0.11436011
0000a0 cd e8 3f bd d6 42 90 bd 67 9e f0 bd 1e d7 ef bd
       -0.046852876 -0.07043998 -0.11748963 -0.11710952
0000b0 a3 fc 91 bd be 23 eb bd f4 05 97 bd 60 69 c9 bd
       -0.07128265 -0.11481427 -0.07374182 -0.09834552
0000c0 d3 f8 1e 3e 7e 0f a2 bd 8a bc 13 bd 79 ea 62 bd
       0.15524606 -0.07913111 -0.036068477 -0.05539939
0000d0 79 86 07 bd 92 5c ef bd 1b 89 4e 3d 06 04 db bd
       -0.033087227 -0.11687578 0.050423723 -0.10694127
0000e0 28 8d 04 3e 43 9a a4 bd 2c 79 be bd d0 55 9e 3d
       0.12944472 -0.080372356 -0.093004555 0.07731211
0000f0 50 3c e1 3d 67 82 04 3e 14 82 0f 3e 5f 9c 06 3e
       0.10997832 0.1294037 0.14014465 0.13145588
000100 cb a0 11 3e 66 f7 a4 3d 58 5e e4 bd 49 5a db bd
       0.14221494 0.08055 -0.11150807 -0.1071058
000110 5e 8a e0 bd 41 d4 e9 3d 2b 83 e6 3d 47 0f eb 3d
       -0.109638914 0.11417437 0.11255487 0.11477523
000120 cc d9 d5 bd 0b ee dd bd 80 7b 39 bc 33 ef d9 3d
       -0.10441932 -0.10836419 -0.011320949 0.10641327
000130 4a b3 98 bd d0 8e d0 bd 29 ed c7 3d 6c 13 aa bd
       -0.07456072 -0.10183489 0.097620316 -0.08304486
000140 65 0a f7 3d 78 c6 84 bd f9 8f e4 bd 74 d0 83 bd
       0.120625295 -0.064831674 -0.11160273 -0.06436244
000150 29 18 f9 3d 60 30 92 bd 90 42 66 3d ef 5c a4 bd
       0.12162811 -0.07138133 0.056215823 -0.08025538
000160 e5 0f 3f bc 79 cc b1 bd 2f 89 2b bd 99 25 e9 bd
       -0.011661504 -0.08681578 -0.041878875 -0.11384124
000170 e1 7a 6f bd 75 6c 53 bd 72 54 d1 bd 6f 0f 7d 3c
       -0.058466796 -0.051617105 -0.10221185 0.015445574
000180 29 52 fa 3d be 85 eb bd fa cf d3 bd 37 c9 84 bd
       0.12222702 -0.11500119 -0.10342403 -0.06483691
000190 8a 0c 29 bd da 89 eb bd 1a c1 20 be 73 5d f2 3d
       -0.041271724 -0.115009025 -0.15698662 0.1183423
0001a0 c8 a7 80 bd d4 b1 fd bd f4 82 f2 bc df 4e fd 3d
       -0.06282002 -0.12387434 -0.029603459 0.12368559
0001b0 0c 03 f0 3d 27 a2 eb bd 8a 06 84 bd bd e8 e9 3d
       0.11719331 -0.115055375 -0.0644656 0.114213444
0001c0 30 4c e6 bd ec 99 04 3e 83 38 a2 3d 67 9d a5 3d
       -0.11245 0.12949342 0.07920935 0.08086663
0001d0 91 d9 ef 3d 52 60 37 bd e1 a8 d3 bd 99 eb 38 3d
       0.117114194 -0.044769593 -0.103349455 0.04514656
0001e0 79 e4 e4 3d 53 36 1a 3e e0 c0 1b bc 4e d6 e6 bd
       0.1117639 0.15059786 -0.009506434 -0.11271344
0001f0 42 75 db bd c4 45 05 3e 7f 57 c0 bd 28 8a 46 3e
       -0.107157245 0.13014895 -0.093916886 0.1938864
000200 aa c6 07 bd f8 69 b1 3d 40 a6 52 bd a2 db e6 bd
       -0.033148445 0.0866279 -0.05142808 -0.112723604
000210 25 4e 9d bd d8 86 cb bd 3c 4f d9 bd 04 9b 10 3e
       -0.076809205 -0.09937829 -0.10610816 0.14121634
000220 e9 10 d2 bc 18 4c e1 bd 66 42 f8 3d 67 b5 71 bd
       -0.025642829 -0.11000842 0.121220395 -0.05901089
000230 49 d4 e3 3d be 00 5f bd e4 73 08 3e 6e 11 e7 bd
       0.111244746 -0.054444067 0.13325459 -0.11282621
000240 0f 13 e8 bd 74 66 eb bd b7 4f f5 3d 57 e7 ed bd
       -0.1133176 -0.11494151 0.11978095 -0.1161639
000250 58 46 d6 bc 47 0e ef bd eb 40 05 3d d2 79 da bd
       -0.02615659 -0.11672645 0.032532614 -0.10667767
000260 60 69 3f bd 95 ab de bd 24 62 15 3e c3 5c 5b 3d
       -0.046731353 -0.108725704 0.14588219 0.05355526
000270 28 6d e1 3d fc 8f 8f bd 32 20 8c bd 2e 86 dc bd
       0.11007148 -0.07009885 -0.06842078 -0.1076778
000280 93 b8 c4 bd 55 9b de bd bf cc ff bd 03 ec 8b bd
       -0.09605517 -0.10869471 -0.12490224 -0.06832125
000290 a0 5d e4 bd 7f 05 d3 bd 95 bb 53 bd b9 8f d9 bd
       -0.1115067 -0.10303783 -0.051692564 -0.10623116
0002a0 a0 b4 dd bd 23 c9 b5 3d f0 4e d0 bd b7 b0 84 bd
       -0.10825467 0.088762544 -0.10171306 -0.06479018
0002b0 e7 c9 0b be 11 8e ee 3d 9b 48 8f bd e4 c1 01 3e
       -0.13651238 0.11648191 -0.0699627 0.1267162
0002c0 d1 74 c1 bd 1d fa 72 bd 00 06 78 3d 40 19 ba 3d
       -0.09446109 -0.059320558 0.060552597 0.09086847
0002d0 fa 2e f1 bd ae 8d b3 3d d6 c8 b1 bd 0e ce e4 bd
       -0.11776538 0.08767258 -0.086808845 -0.11172114
0002e0 a4 84 f0 3d a2 21 f1 bd a7 c0 a2 3d d2 2f e8 bd
       0.11744049 -0.11773993 0.07946902 -0.11337246
0002f0 91 06 02 3e bc a8 70 bc 61 4a e2 3d 8e 6c f0 3d
       0.12697817 -0.014688667 0.11049343 0.11739455
000300 9a c0 fa 3d ff 18 dd bd 9b 6c e3 bd 4d 67 02 3e
       0.12243767 -0.10795783 -0.11104699 0.12734719
000310 ef 25 d8 bd cc 30 c6 bd 75 95 a9 bc 58 b0 ab 3d
       -0.1055411 -0.09677276 -0.02070115 0.08383244

layers.2.running_mean f4 [200]
000000 e6 db 02 3e ac ff 23 3e f6 7b 91 3d 63 26 a6 3e
       0.12779197 0.160155 0.07103722 0.32451162
000010 e8 b1 aa 3e 99 68 35 3e a5 fd 54 3e 9e dd 85 3e
       0.33338857 0.17715682 0.20799883 0.26145643
000020 8f d6 25 3e ff 0a 99 3e 4d c3 f2 3d ef b8 a7 3e
       0.16195129 0.29891202 0.11853657 0.3275828
000030 57 df 68 3d 68 d1 5d 3e fb e2 95 3e a7 56 85 3e
       0.05685362 0.21661913 0.29274735 0.26042673
000040 4e 2b 8b 3e 9c f8 e9 3d 55 50 89 3e 7c 5a 60 3e
       0.27181476 0.114243716 0.268191 0.21909517
000050 2a 20 e5 3e 08 b0 1f 3e 0c f1 0d 3e c6 4c 71 3e
       0.44751102 0.15594494 0.13861483 0.23564443
000060 52 12 a6 3d 49 64 ad 3e 9c f1 b6 3e 1b 7f 84 3e
       0.08108963 0.33865574 0.35731208 0.25878224
000070 03 94 d7 3e db 5d 09 3f dc 7d 4a 3e 48 e7 c4 3d
       0.4210511 0.5365884 0.19774574 0.09614426
000080 c4 0b bd 3d 6e 07 44 3e 02 31 fb 3d 09 b0 73 3e
       0.0923076 0.19143459 0.12265207 0.23797621
000090 8c e7 f7 3d d7 eb ca 3e 6f d4 8d 3e 71 f1 91 3e
       0.12104711 0.39633057 0.27701136 0.28504518
0000a0 1b c0 8d 3d 4a bd b5 3d 8e 15 b6 3e 0e bd 80 3e
       0.06921407 0.08873995 0.3556332 0.25144237
0000b0 04 56 a6 3d 91 ce d8 3d f6 fc 8e 3e 8f 3d 0c 3e
       0.08121875 0.105862744 0.2792737 0.13695358
0000c0 cb 2d 47 3d 25 d0 78 3d 4b 5b 56 3d 1b 91 4c 3e
       0.048627656 0.060745377 0.052333158 0.19977228
0000d0 d5 9c 2c 3e 9b f4 e0 3e 6b f6 35 3e 12 91 1b 3d
       0.16856702 0.4393662 0.17769782 0.037980147
0000e0 1c 2b 8d 3d 7a d9 14 3f 92 66 bc 3e 02 ad 03 3e
       0.06892988 0.5814434 0.36797005 0.12858966
0000f0 f7 66 a0 3e ed b6 15 3d 9c bb 07 3f d0 e8 24 3e
       0.31328556 0.036551405 0.53020644 0.16104436
000100 92 36 05 3f 50 8d 82 3e d2 45 30 3e f9 34 e5 3d
       0.5203639 0.25498438 0.17214134 0.11191744
000110 f7 06 ab 3d f5 18 bd 3e e6 72 44 3e c5 cb 44 3e
       0.08350938 0.36933103 0.19184455 0.19218357
000120 3c 92 99 3e a0 66 94 3e 0f 9b 7c 3e 57 2d e0 3e
       0.2999438 0.28984547 0.24668525 0.43784592
000130 84 0f 8b 3e 01 b8 32 3e 5a 28 c0 3e f6 2e 58 3d
       0.27160275 0.17453004 0.37530786 0.05277916
000140 49 b3 00 3e 4f 87 40 3e f0 1d ed 3c 2c 0e 8f 3e
       0.12568392 0.18801616 0.02894494 0.279405
000150 c5 58 94 3e e3 6e 0b 3e 8a 81 04 3f 67 d8 9f 3d
       0.28973976 0.13616519 0.5176016 0.07804947
000160 4a 4e 19 3e 16 db 1e 3e 26 f7 52 3e be 15 a6 3d
       0.14971271 0.15513262 0.20602092 0.08109616
000170 27 84 81 3e d2 96 35 3c 09 19 e9 3e e9 0d 00 3e
       0.25296137 0.011083322 0.45526913 0.12505306
000180 13 15 97 3e d6 31 4b 3e ee 83 24 3e cf c3 5b 3d
       0.29508266 0.1984323 0.16065952 0.053653535
000190 ce f9 40 3e 27 d0 06 3e 19 1f 47 3c 88 68 35 3e
       0.18845293 0.13165341 0.01215341 0.17715657
0001a0 06 94 bc 3d 42 c5 b5 3e bb 70 44 3e fa 26 7d 3e
       0.09207921 0.35502058 0.19183628 0.247219
0001b0 79 7f e0 3e 92 37 44 3e e3 36 2f 3e 37 1f b2 3e
       0.43847254 0.19161823 0.17110781 0.3478944
0001c0 ba 01 22 3e db c5 01 3e 92 c2 62 3e 1b 29 61 3e
       0.15820971 0.12673132 0.22144535 0.21988337
0001d0 a6 68 77 3e f7 06 2e 3e 1f c1 79 3e 7c bc 31 3c
       0.24161014 0.16994844 0.24390076 0.010848161
0001e0 85 00 9b 3e 0b 1e 47 3e 85 01 3e 3e ae 71 95 3e
       0.30273834 0.19445054 0.18555267 0.29188293
0001f0 0b 75 8a 3e 0f 01 c0 3e 12 77 de 3d 75 ae 04 3e
       0.27042422 0.37500808 0.108625546 0.12957175
000200 24 c3 90 3c 3e a9 8b 3e 9c b9 27 3e 0e 70 e4 3d
       0.017671175 0.2727756 0.16379398 0.11154185
000210 01 eb 72 3e 6f b7 58 3e ec 9b bc 3e 6f 4b 2f 3d
       0.2372246 0.21163724 0.3683771 0.04279655
000220 d1 ed fd 3d 99 68 b5 3e 6d 8f 93 3e 56 43 00 3e
       0.123988755 0.35431364 0.28820363 0.12525687
000230 b7 e3 b3 3e 66 30 31 3e 0d e3 28 3e 5e c4 13 3e
       0.3513467 0.17303619 0.16492863 0.14430377
000240 f0 31 10 3e 3c 10 dd 3d 84 f5 17 3e 7a 3c f2 3d
       0.1408155 0.10794112 0.1483975 0.11827941
000250 df d0 61 3e be 24 3c 3e c1 2f 52 3e 1b 13 54 3e
       0.22052334 0.18373391 0.20526029 0.20710413
000260 80 75 a9 3d be 5f 27 3e 39 f0 ae 3e 48 c4 0e 3e
       0.082743645 0.16345116 0.3416765 0.13942063
000270 0a 55 04 3e f3 00 32 3e 82 c8 d8 3d 56 1a cb 3d
       0.12923065 0.17383175 0.10585119 0.099171326
000280 2e 7f b2 3e 4c d0 0b 3e 4a 7e 92 3e 9a 6c 72 3e
       0.34862655 0.13653678 0.28611976 0.2367424
000290 bf 49 99 3d 7b 88 67 3e e4 45 4f 3e e8 e6 5a 3d
       0.07484769 0.22610657 0.20241505 0.053442866
0002a0 3a c3 8f 3e 67 05 45 3e a5 4a 97 3d aa 8a a7 3e
       0.28078634 0.19240342 0.07387284 0.3272298
0002b0 86 be 11 3e 8f 50 3c 3e 99 b7 05 3e d0 cf 8d 3e
       0.14232835 0.18390106 0.13058318 0.2769761
0002c0 19 d3 99 3e 91 97 fe 3d 0c 04 ab 3e a1 ee f3 3d
       0.30043867 0.12431253 0.33401525 0.11910749
0002d0 32 f1 ed 3d 94 c7 19 3e 22 dd 8a 3e 06 48 2b 3e
       0.1161827 0.1501754 0.27121836 0.16726694
0002e0 ed 3e 10 3e 03 84 cd 3d 20 4a 6d 3e 67 08 e0 3d
       0.14086504 0.10034945 0.23172808 0.109391026
0002f0 62 1b c1 3e fe f1 88 3d d7 fb 5c 3e fb c7 88 3d
       0.37716204 0.06686781 0.21580444 0.06678768
000300 d4 a1 88 3e 7a b4 2d 3e 44 b0 be 3d c4 a1 de 3e
       0.26685965 0.16963378 0.09310964 0.43482792
000310 fe ae 35 3e 04 f9 d1 3e 8e 00 21 3e 18 ce a4 3e
       0.17742535 0.41010296 0.15722868 0.32188487

layers.2.running_var f4 [200]
000000 f4 dc a7 3d 3d 17 32 3d fb 45 a6 3c 0f 25 9f 3d
       0.0819644 0.043479193 0.020297041 0.0777074
000010 32 23 42 3d f3 2b a3 3d a8 a1 d9 3d d8 4a dd 3d
       0.047396846 0.07967367 0.106265366 0.10805291
000020 aa 98 31 3d 55 64 60 3d b6 50 57 3c 9a b8 2e 3d
       0.043358482 0.054783184 0.013141802 0.04265652
000030 17 31 f8 3c 88 62 1a 3d dc cc 13 3e 5e 2a a0 3d
       0.030296845 0.037691623 0.14433616 0.07820581
000040 78 ad 66 3d fe 75 4b 3d 1d 52 b3 3d 3e 66 23 3c
       0.056317776 0.049673073 0.08755896 0.009973107
000050 e9 cb 99 3e 18 08 a2 3d 9d d6 83 3d b3 11 6d 3d
       0.30038384 0.079117 0.064374186 0.057878207
000060 d5 73 c4 3b bb 39 e4 3d 48 e3 65 3e 81 c3 7e 3d
       0.0059952536 0.11143824 0.22449982 0.062198166
000070 a8 85 15 3e 6d 0e b1 3d 4e a2 dd 3c a2 63 3e 3d
       0.14601767 0.086453296 0.027054932 0.046481736
000080 9b 06 81 3d de 38 12 3d 2a 40 f5 3c 6f 94 8d 3d
       0.06300088 0.035698764 0.029937822 0.06913077
000090 bb 23 12 3d 5b d0 3f 3e 23 e2 a5 3c 9d 00 03 3d
       0.035678606 0.18731825 0.020249432 0.031983007
0000a0 d9 3d 00 3d cc ab 2e 3d 37 ff 24 3e 8e 8b 8a 3d
       0.031308983 0.042644307 0.16112982 0.06764899
0000b0 8b 7f 33 3d 2e d6 2a 3d d2 a1 b6 3d 42 e0 2c 3d
       0.043822806 0.041708164 0.089175835 0.042206056
0000c0 fd e2 93 3b 12 6c ec 3c 0f 0f ef 3c 1b 67 33 3d
       0.004513143 0.028860126 0.029181985 0.0437995
0000d0 39 f1 f0 3d 6c 87 2f 3e 37 0d ae 3c 13 f2 b8 3c
       0.117647596 0.17141503 0.021246536 0.022576367
0000e0 55 90 9e 3c ad 55 b8 3e dc 1e 42 3e 5b 3a 4a 3d
       0.019355932 0.36002865 0.18957084 0.04937206
0000f0 2f ca 05 3e 30 53 0d 3c 9b c6 de 3d 41 7f aa 3c
       0.13065408 0.0086257905 0.10877725 0.020812633
000100 ee fa 31 3e 53 e7 6a 3d f1 fb 92 3d 5d a0 64 3d
       0.17380878 0.057349514 0.0717696 0.055816997
000110 c5 83 3f 3d 9c c4 1d 3d 48 6c 83 3c 05 ee 81 3d
       0.046756525 0.03851758 0.016042843 0.06344227
000120 40 af bd 3d 44 0d 47 3d 41 e0 7c 3d b3 16 32 3e
       0.09261942 0.048596635 0.061737303 0.17391472
000130 78 42 ec 3d e7 30 95 3d c3 e0 13 3e 6b f1 28 3d
       0.115361154 0.07284718 0.14441209 0.04124586
000140 e1 bf 90 3d ac 07 2d 3d 74 7a 88 3c c6 90 d9 3d
       0.07067848 0.042243645 0.016659953 0.106233165
000150 52 64 d7 3d 8c db ef 3c f2 e2 9c 3d 15 10 52 3d
       0.105171815 0.029279493 0.07660474 0.05128487
000160 e0 97 10 3d 92 41 bb 3d a5 e4 a4 3d fc 59 30 3d
       0.03530109 0.09143366 0.08051423 0.043054566
000170 ca 96 4c 3d a5 de f9 3a b3 32 78 3e e8 23 dc 3c
       0.04994849 0.0019063546 0.2423809 0.02687259
000180 05 75 31 3d d2 9c 90 3d 8f 02 8a 3d c3 4c c1 3c
       0.04332449 0.07061161 0.06738769 0.023596173
000190 78 cd 6a 3d bf 3a 88 3d e5 2b 7e 3a 39 a0 3b 3d
       0.057324857 0.0665183 0.0009695872 0.045807097
0001a0 f2 ef 71 3d 0a 0e f7 3d a9 79 83 3d 5c 7e 83 3d
       0.05906672 0.120632246 0.06419689 0.064205855
0001b0 52 f7 1c 3e 87 0b a8 3d d7 95 5a 3d 36 75 0b 3e
       0.1532872 0.08205324 0.053365555 0.13618931
0001c0 83 72 b1 3d 58 76 1a 3d b1 23 cc 3d fd 86 c2 3d
       0.086644195 0.037710518 0.09967745 0.09498403
0001d0 92 94 cb 3d fa 7a 33 3d 4a c8 cf 3d 6f 19 44 3c
       0.09940447 0.04381845 0.10145624 0.0119689545
0001e0 6e 70 f6 3d 9a 89 49 3d 08 e2 4b 3d 2d 5e ed 3d
       0.12033163 0.049203493 0.049776107 0.11590228
0001f0 ef b4 a6 3d 83 95 31 3d 81 af 87 3c 7a 00 b7 3c
       0.08139979 0.043355476 0.016563179 0.022339094
000200 71 e7 b0 3b 76 2a d2 3c b1 33 8d 3d 49 47 3d 3d
       0.0053986837 0.025655013 0.06894625 0.04621056
000210 db b4 b2 3d 04 f2 fe 3d 97 ac b7 3d 92 94 77 3b
       0.08725902 0.124485046 0.08968466 0.0037777764
000220 d2 f8 33 3d 3b 8b 3b 3d fe 5a a3 3d b2 f1 69 3d
       0.043938465 0.045787077 0.0797634 0.057115264
000230 8a db a8 3d 90 f9 98 3d 66 a4 50 3d b3 cf 50 3d
       0.08244999 0.07469475 0.050938033 0.050979327
000240 bf ec 77 3d 7e c6 26 3d 26 00 d1 3c 3a 8e 43 3d
       0.060528513 0.04071664 0.025512766 0.04774306
000250 7c 6c d9 3d a7 a7 9c 3d c7 91 14 3e ee 65 9e 3d
       0.10616395 0.07649165 0.14508735 0.07734285
000260 7a 9b 45 3d 2a 08 7f 3d 28 08 8c 3d f8 e5 6a 3c
       0.048243977 0.062263645 0.06837493 0.014337055
000270 f7 b7 12 3d 12 ef 4d 3d 3d a7 6c 3d 04 71 5b 3d
       0.035819974 0.050276823 0.05777668 0.053574577
000280 e5 3f 6c 3e b1 4e 91 3d 4c c4 af 3d c8 9a 21 3e
       0.23071249 0.07095087 0.085823625 0.157817
000290 fc bc 34 3d d2 71 06 3e 5c cb 89 3d b1 03 d0 3c
       0.044125542 0.13129357 0.06728241 0.025392385
0002a0 7d 66 23 3e 8e 4f 85 3d 8d d5 22 3d f3 7d 4a 3e
       0.15957065 0.065093145 0.03975444 0.19774608
0002b0 3a a7 2e 3d c9 b5 c7 3d 84 28 54 3d a9 65 f9 3d
       0.04263995 0.0975147 0.05179645 0.12177593
0002c0 ce cb 68 3d 8b d1 a7 3d b1 31 3d 3d b2 92 2a 3d
       0.05683499 0.08194264 0.046189968 0.041643806
0002d0 20 5d 1f 3d 62 ac 49 3c 81 b0 d9 3d ff 39 97 3d
       0.03890717 0.012309166 0.106293686 0.07384109
0002e0 78 c3 53 3d 59 e7 54 3d 16 ba c2 3d 33 fd 7b 3d
       0.051700085 0.051978443 0.09508149 0.061520766
0002f0 cd d2 7a 3d 9b 10 39 3d 15 67 6e 3d 51 70 b4 3b
       0.06123619 0.04518185 0.058203775 0.005506553
000300 bf de 32 3d 0a 44 77 3d ad c0 88 3d e3 e9 14 3d
       0.04366946 0.06036762 0.06677375 0.036355864
000310 ee 20 b4 3d 7e 68 ae 3d 21 3f 2d 3d 55 34 28 3e
       0.08795343 0.08516024 0.042296533 0.16426213

layers.4.weight f4 [100, 200]
000000 9d 8b d0 3d 3d 61 83 3d 80 f3 36 3d d4 ed 8a bd
       0.10182879 0.06415031 0.044665813 -0.06783643
000010 c9 ec b4 3c 35 02 74 3b 51 f6 9f 3c 90 19 15 bc
       0.022085564 0.003723276 0.019526633 -0.009100333
000020 52 95 fa 3d 5b 61 63 bd e6 d8 cf bd 60 b4 37 bc
       0.12235512 -0.055512767 -0.10148792 -0.011212438
000030 0c 5d 8f 3d 8b 78 bc bd 84 3a 2d bd dc 57 9b 3b
       0.07000169 -0.09202679 -0.042292133 0.0047406983
000040 16 17 b5 3d 9f aa f6 bb d5 0d b6 bd a3 52 26 bc
       0.08842294 -0.007527664 -0.08889357 -0.010151538
000050 db bf 85 3b 31 a7 8f 3d fe b5 38 bb 30 95 8b 3d
       0.004081709 0.07014311 -0.0028184648 0.06815565
000060 5e 7b 99 bd 82 38 9e 3c 9b 19 54 3c 7c c1 b8 bd
       -0.074942335 0.019314054 0.012945558 -0.09021279
000070 ef 64 17 bc 35 69 1d bd a6 9f ce bd f3 2c 41 3d
       -0.009240373 -0.03843041 -0.10089044 0.047162008
000080 67 14 bf 3d 5f 96 0a bd eb d9 c2 3c e6 46 ab 3d
       0.09330063 -0.03383481 0.023785552 0.08363132
000090 e8 c7 1a bd 2b 4b d7 3b d7 cc 48 bd f9 8a d8 3c
       -0.0377883 0.00657024 -0.049023475 0.026433455
0000a0 bd c3 c2 3d 77 13 fd 3c 5a f4 d1 3c 54 93 fa 3d
       0.0950999 0.03089307 0.025629211 0.12235132
0000b0 9c d5 c5 3c d3 86 d9 3c 63 d2 7a bd 05 3a 5f 3d
       0.024149708 0.026553547 -0.061235797 0.05449869
0000c0 9a ac 05 3d c2 cb 8a bc 33 e7 f1 3d f6 b4 4e 3c
       0.03263531 -0.016942862 0.11811676 0.012616387
0000d0 34 76 06 3d c9 89 c3 3d 07 ed bf bc 8c 30 9c 3d
       0.03282757 0.09547765 -0.023428453 0.07626447
0000e0 d3 18 5a bc ab 2f 08 3d f6 d5 d3 3c 43 f8 60 bd
       -0.013311583 0.033248585 0.02585886 -0.05492426
0000f0 4f 6c 9c bc 32 9c 44 3c 3c b4 f6 bd 83 6b ab bd
       -0.019094614 0.0120001305 -0.12046096 -0.083701156
000100 94 d7 a1 bd 71 fe ab bb d5 3d b6 3d 35 74 da 3b
       -0.079024464 -0.0052488376 0.08898512 0.006666685
000110 03 f4 04 bb fe fc e4 bd e5 ff f4 3c 8d 9a 95 3c
       -0.0020287044 -0.11181067 0.029907176 0.018262172
000120 34 92 8b 39 5c 16 ad 3d 43 07 3d 3d 48 2a ff bb
       0.00026621076 0.0845153 0.046149503 -0.0077870227
000130 7a 0e 09 bd 85 b7 cd bc 86 5f 0d 3d 97 e2 c3 3c
       -0.03346107 -0.025111923 0.034514926 0.023911757
000140 02 e5 84 3c 38 8d b6 3d 22 ec aa 3d 77 61 db ba
       0.01622248 0.08913654 0.0834582 -0.0016737421
000150 10 b0 c8 3c 0a 24 83 3d f9 5c f9 bd a7 a8 18 3b
       0.024498016 0.06403358 -0.12175936 0.0023293884
000160 50 3a 37 3d 87 a6 65 3d 07 02 8d 3d 4d 5a eb 3c
       0.044733346 0.056067016 0.06885152 0.028729582
000170 90 3d 9e 3d c2 5d c0 3d 9f 1e 8c 3c 71 f9 c4 3c
       0.07726586 0.09392883 0.017104445 0.024044724
000180 85 b9 48 bd ab af 5d 3d a4 b3 8b 3c 93 40 b4 3d
       -0.04900505 0.05412261 0.017053433 0.08801379
000190 1a f7 9e 3d 8d f3 21 3d cf 65 1b 3d 2a 9d 2f bd
       0.07761975 0.03953891 0.03793889 -0.042874493
0001a0 5b f1 9b 3d de 6c 68 bc c3 24 e9 3b 7b 01 44 bc
       0.07614394 -0.014186112 0.007114978 -0.011963244
0001b0 bb 77 c0 bc c2 91 a8 bb c7 42 b5 3d df d9 1d 3c
       -0.023494592 -0.005144329 0.088506274 0.009634464
0001c0 b1 eb a0 3d f5 b7 98 bc 98 1f 5a bd 92 48 90 bd
       0.078574546 -0.018642405 -0.053252786 -0.07045092
0001d0 58 b5 a6 bd ad a7 de 3c bd f7 29 bd 54 3b c1 bb
       -0.08140057 0.027179563 -0.041496027 -0.005896965
0001e0 16 e9 c8 bc c1 39 6f 3a ca 05 b4 bc 07 ce 77 bc
       -0.024525207 0.00091257325 -0.021975417 -0.015124804
0001f0 cf 3f 53 3d 1f 3b c8 bd 26 67 f5 bb 03 01 ea bd
       0.051574524 -0.097769015 -0.007489103 -0.11425974
000200 6a 8c b7 3d af e2 30 bc fc 57 3f bc 1e 66 9e bc
       0.08962329 -0.010796233 -0.011678692 -0.019335803
000210 a7 0e 30 bc 5e d2 f5 bb 01 f1 60 3d 6b b4 03 3c
       -0.010745681 -0.0075018844 0.05491734 0.00803862
000220 2e 40 06 3d 61 fb c6 3d bd c9 94 bd 90 a2 be 3c
       0.03277605 0.097159155 -0.07265041 0.023270875
000230 a7 99 3f bd 06 92 b0 3d 1a b5 2f bd e5 22 50 3d
       -0.046777394 0.08621602 -0.04289732 0.050814528
000240 a9 27 76 3d fc 77 b5 3d 35 ac f8 bb e4 4c f3 3b
       0.060096417 0.08860776 -0.007588888 0.0074249376
000250 e2 06 8a 39 6c f1 f5 3c 2e b6 86 3d f6 57 d2 3c
       0.0002632654 0.030022345 0.06577717 0.025676709
000260 8c 5e c4 3c 12 cd 26 3a 5c 24 0c bd 0c 07 3a bd
       0.023970865 0.00063629553 -0.034214363 -0.045416877
000270 0a 3e 27 bd 53 72 54 bc 5c 48 d4 3a bb 7b 8f 3d
       -0.04083065 -0.01296671 0.0016195881 0.070060216
000280 33 c3 8c 3c 4d 65 9f 3a 71 be a5 3d 32 4d de 3c
       0.017182922 0.0012160927 0.080929644 0.027136419
000290 8e e1 32 3d e2 af a6 3d cb 77 9b 3d 80 9d 46 3c
       0.043672137 0.08139016 0.07591208 0.012122512
0002a0 fb a1 e9 3c 71 10 25 bd 60 6f 64 3d 92 8e ae 3c
       0.028519621 -0.040298883 0.055770278 0.021308217
0002b0 d7 a9 08 bd 48 76 85 3c 3b 51 ee 3d 9d 3f b6 bd
       -0.033365097 0.016291752 0.11636587 -0.08898852
0002c0 49 41 c7 3d d8 56 a8 bc 54 99 17 be 8b 31 d2 3d
       0.09729249 -0.020549223 -0.14804584 0.10263356
0002d0 51 35 f8 3c a0 08 24 bd 8d 17 d1 3d 82 7f ed 3c
       0.03029886 -0.040047288 0.1020957 0.028991465
0002e0 f0 df ee 3b 7f ec 9a 3d 18 f2 9f 3b 0d e5 68 ba
       0.007289879 0.07564639 0.0048811547 -0.0008884229
0002f0 5c 3e b3 bd c7 5d 88 3d f9 c7 4d 3c ab 93 88 bb
       -0.087521285 0.066585116 0.012559884 -0.004167994
000300 35 cb 32 3c aa 53 84 3d 35 0b 4a 3d 68 2e 15 bd
       0.010912706 0.0646127 0.049327094 -0.03642121
000310 1f 9b 2e 3d 00 24 de 3b 3c 8a b5 3d 3d e4 e8 3c
       0.042628404 0.006779194 0.08864257 0.028429145
000320 ed 61 37 3d fb 08 0f 3d 0e 83 89 bd a0 9c f4 3c
       0.044771124 0.034920674 -0.0671445 0.02985984
000330 7e f9 89 bd f0 2a 84 3d e8 1f 20 3d 12 1d 22 bd
       -0.0673704 0.06453502 0.03909293 -0.039578505
000340 2e 71 52 3d fe fb 97 bc bd 15 3e 3d e4 9b f8 3a
       0.051377468 -0.018552776 0.04640745 0.0018967357
000350 c4 c0 82 bd 7c 64 2e bd 64 0b d2 bb f6 b2 91 bc
       -0.063844234 -0.042576298 -0.0064100493 -0.01778553
000360 b5 71 2c 3d f5 d0 cb bc c9 98 5c bc c9 2e 60 3d
       0.042100627 -0.024879912 -0.013464161 0.054732118
000370 ac d6 07 bd 29 89 fa 3c 2f 01 db 3c ff 89 81 3d
       -0.03316371 0.030582981 0.026733963 0.06325149
000380 16 a6 e6 3c 90 cf b4 3b 40 fd d3 bc e0 45 2a 3c
       0.028155368 0.0055179074 -0.025877595 0.010392636
000390 9b 87 dc 3c 74 9d aa 3c 87 3c 3e 3c 5c e0 ed 3d
       0.02692013 0.020827033 0.0116111105 0.11615059
0003a0 78 1b 20 3d b4 83 f8 3b 6d 92 97 bd aa d5 38 bc
       0.039088696 0.0075840596 -0.074009754 -0.01128141
0003b0 18 fd 1e bd dc 49 8e bd c8 18 07 3d f4 8c 79 3c
       -0.038815588 -0.06947681 0.032982618 0.01523136
0003c0 cf 6f 8f 3d 95 06 cd 3c 7b ed aa 3d 15 b4 70 3d
       0.07003748 0.025027553 0.08346077 0.05876549
0003d0 d5 b0 6f 3d 17 a2 4d 3d f1 c2 f3 bc 67 0c d7 3c
       0.05851825 0.05020341 -0.029756041 0.026251031
0003e0 85 39 16 bd d4 8d 54 3c e5 9c e1 bd a7 d4 da bc
       -0.03667595 0.012973268 -0.110162534 -0.026712729
0003f0 ad 5d 9c bb a0 17 ea 3c 04 26 db 3d c2 4b c4 3d
       -0.004771909 0.028575718 0.1070061 0.09584762
